model_omniglot.pt (torch, 464611 bytes, 24 tensors)

encoder._blocks.0.encoder.0.weight f4 [64, 3, 3, 3]
0.17622854 0.1509082 -0.13368493 0.15017171 0.05077271 0.06863803 -0.08599762 0.031057611
0.16482551 -0.1120934 0.15844993 -0.052580766 0.115569115 0.11900314 0.12260049 -0.019474877
0.06639146 0.023617672 -0.06074999 0.040229037 -0.17726794 -0.04918344 0.014774283 0.15746862
-0.1442168 -0.17068693 -0.059171356 -0.07672844 0.05551555 -0.2006011 0.22614548 -0.16165228
0.1316059 -0.012465732 -0.043667912 0.09441368 0.06897996 0.19284406 0.010515519 -0.0083512915
0.053535853 -0.06915907 0.036501113 0.19064419 0.08673688 -0.045147367 0.14844628 0.023911448
0.1500751 -0.1154719 -0.20747896 -0.118848674 -0.12879264 0.13340244 0.08417958 0.098768234
0.10247301 0.030121773 0.17138158 -0.1642998 0.024749553 -0.10133884 0.040006705 -0.037528835
0.07802264 0.001513577 0.19308558 -0.09329793 -0.14233838 -0.10215178 0.20311418 0.04479857
0.21393248 -0.13977207 -0.14927801 -0.11709609 -0.108691536 0.05038859 0.081543736 0.1899278
-0.11872214 -0.15426336 0.12339301 -0.092163816 0.14755383 -0.07393187 0.1580173 -0.07586972
-0.038339395 0.036301542 0.017617302 -0.027783679 0.10033905 0.16158053 -0.16782372 -0.054816004
0.2498776 -0.006158301 -0.09059843 -0.20928164 -0.088927545 0.03370008 0.005348939 -0.16796085
0.052441187 -0.057801086 -0.10449316 -0.12834646 -0.11528331 -0.13681084 0.23361117 0.021526573
0.09141764 -0.21137358 -0.11328001 -0.060122102 0.008749254 -0.11618956 -0.09719215 -0.07397675
-0.014289071 -0.03949897 -0.045214336 -0.11729378 -0.12816063 -0.13362011 -0.012723689 -0.16616756
0.20259987 -0.053016987 0.19769546 0.028085457 -0.14984927 0.13711813 -0.07429651 0.0014297849
-0.17957692 -0.24626638 0.04361151 -0.027113698 0.07883545 -0.18923073 0.15742981 -0.113634884
0.041969884 0.020366764 0.044412546 0.14391622 0.19024064 -0.14868769 0.017139427 -0.068226755
0.006544247 -0.068846166 0.155465 -0.19618899 0.091404416 0.08256074 0.06644806 -0.13534157
0.189477 0.06992473 -0.02209597 -0.12376705 0.12455214 0.003148263 -0.10413431 0.19413716
0.07800014 -0.09839593 -0.08040088 -0.05604329 0.15328754 -0.0054139365 -0.07778792 -0.08187161
-0.11494158 0.10372751 0.15704566 -0.16417405 -0.0021560446 0.14524888 0.07866041 -0.03651653
0.08447958 0.12996785 0.1070559 -0.025735864 -0.033955455 0.011598071 -0.07289187 -0.016407548
0.13191488 0.20102933 -0.024627078 -0.041049536 -0.0134007335 -0.016015276 0.037276596 0.015036109
-0.13385086 -0.0621216 0.19770561 0.06939461 -0.0075324927 -0.13223793 -0.12226666 -0.18138035
-0.10162641 0.10593358 0.13160972 0.124491714 -0.17568941 -0.11369253 -0.04658097 0.18164207
0.04424774 0.020267293 0.098755114 -0.07229974 -0.117517926 0.14267074 -0.10896426 -0.0066528646
-0.18418851 0.14520946 0.21591333 0.08927362 -0.13318901 -0.1828907 -0.15410005 0.122053124
0.124323785 0.1692093 0.11722729 0.118813396 0.017251002 -0.1453582 -0.15783978 -0.17780411
0.057325065 -0.06255991 -0.03146927 -0.057437018 -0.022344068 -0.08241714 -0.13264765 0.18843469
-0.05231354 0.074031934 -0.12798554 -0.10429075 0.019363083 -0.08056464 -0.005842334 -0.19010936
00000000: 4175 343e ae87 1a3e b4e4 08be 9dc6 193e
00000010: 0cf7 4f3d 1892 8c3d 851f b0bd 886c fe3c
00000020: 05c8 283e 3991 e5bd b340 223e ee5e 57bd
00000030: 80af ec3d ebb7 f33d f715 fb3d c789 9fbc
00000040: 3ff8 873d d979 c13c fbd4 78bd 34c7 243d
00000050: ba85 35be 9374 49bd d60f 723c 743f 213e
00000060: 92ad 13be 8ec8 2ebe aa5d 72bd cd23 9dbd
00000070: 4664 633d 606a 4dbe ae92 673e 2d88 25be
00000080: b2c3 063e 123d 4cbc 20dd 32bd f65b c13d
00000090: 5e45 8d3d ea78 453e 4949 2c3c dbd3 08bc
000000a0: 6948 5b3d 45a3 8dbd 3182 153d 3b38 433e
000000b0: 1ba3 b13d 72ec 38bd 4d02 183e f1e1 c33c
000000c0: 49ad 193e 887c ecbd 5d75 54be ef66 f3bd
000000d0: 38e2 03be a69a 083e 5866 ac3d 0047 ca3d
000000e0: 5fdd d13d f0c1 f63c a77e 2f3e 353e 28be
000000f0: 93bf ca3c bd8a cfbd 12de 233d d6b7 19bd
00000100: 55ca 9f3d 3763 c63a 3ab8 453e fc12 bfbd
00000110: 27c1 11be f434 d1bd 2afd 4f3e b57e 373d
00000120: 1e11 5b3e 6920 0fbe 56dc 18be 13d0 efbd
00000130: ab99 debd 4464 4e3d 6700 a73d 6f7c 423e
00000140: 9824 f3bd 37f7 1dbe 79b5 fc3d 62c0 bcbd
00000150: 5a18 173e 9869 97bd 49cf 213e 9561 9bbd
00000160: c509 1dbd edb0 143d 2952 903c 999a e3bc
00000170: 8f7e cd3d 5e75 253e fbd9 2bbe bf86 60bd
00000180: eadf 7f3e 93cb c9bb ab8b b9bd ed4d 56be
00000190: a51f b6bd 1809 0a3d 2746 af3b eefd 2bbe
000001a0: 92cc 563d d5c0 6cbd 8300 d6bd 416d 03be
000001b0: a819 ecbd 2418 0cbe c437 6f3e 7f58 b03c
000001c0: 2c39 bb3d 5172 58be 5aff e7bd 9842 76bd
000001d0: 0859 0f3c cbf4 edbd ae0c c7bd 1f81 97bd
000001e0: b51c 6abc acc9 21bd ab32 39bd b937 f0bd
000001f0: 8a3c 03be b6d3 08be 0577 50bc d427 2abe
00000200: 5776 4f3e 5728 59bd ae70 4a3e 7913 e63c
00000210: 1672 19be b268 0c3e c528 98bd 9f67 bb3a
00000220: 03e3 37be 412d 7cbe fca1 323d 8c1d debc
00000230: 7b74 a13d b3c5 41be 4835 213e 68b9 e8bd
00000240: 9de8 2b3d 33d8 a63c eee9 353d c65e 133e
00000250: 71ce 423e 9641 18be fc67 8c3c 78ba 8bbd
00000260: 1f71 d63b 38ff 8cbd 3832 1f3e c4e5 48be
00000270: 3d32 bb3d 9b15 a93d ec15 883d fb96 0abe
00000280: 4206 423e b234 8f3d 9c02 b5bc 9479 fdbd
00000290: 3115 ff3d 1753 4e3b 5e44 d5bd e4cb 463e
000002a0: 8abe 9f3d ce83 c9bd 37a9 a4bd a68d 65bd
000002b0: 69f7 1c3e 6467 b1bb 464f 9fbd 4dac a7bd
000002c0: 7e66 ebbd 176f d43d 94d0 203e 3e1d 28be
000002d0: 6d4c 0dbb 1fbc 143e b618 a13d 5b92 15bd
000002e0: a103 ad3d 4b16 053e 2040 db3d 05d4 d2bc
000002f0: e014 0bbd d605 3e3c 5548 95bd 1f69 86bc
00000300: b214 073e a2da 4d3e babe c9bc 8f23 28bd
00000310: c08e 5bbc 7832 83bc 58af 183d 035a 763c
00000320: 3310 09be 3873 7ebd 5773 4a3e c31e 8e3d
00000330: 21d3 f6bb 6169 07be f166 fabd c5bb 39be
00000340: 8221 d0bd b4f3 d83d b3c4 063e 83f5 fe3d
00000350: ede7 33be a1d7 e8bd b0cb 3ebd 6100 3a3e
00000360: 1e3d 353d 9807 a63c 1f40 ca3d e311 94bd
00000370: 3dad f0bd 4718 123e a728 dfbd 4600 dabb
00000380: ea9b 3cbe cab1 143e 6218 5d3e 16d5 b63d
00000390: b362 08be b347 3bbe 67cc 1dbe fdf6 f93d
000003a0: 789d fe3d 3445 2d3e dd14 f03d 7054 f33d
000003b0: f951 8d3c c8d8 14be c0a0 21be 4812 36be
000003c0: b0cd 6a3d 691f 80bd ece5 00bd 1443 6bbd
000003d0: e80a b7bc 51ca a8bd c9d4 07be 06f5 403e
000003e0: b946 56bd 0e9e 973d a40e 03be 6496 d5bd
000003f0: 549f 9e3c 13ff a4bd 0d71 bfbb 07ac 42be

encoder._blocks.0.encoder.0.bias f4 [64]
0.036916267 -0.09771685 -0.0933648 0.16550067 0.091843136 -0.056386437 0.024389375 0.03293931
0.04613665 -0.0633789 -0.118991874 0.12641372 0.026271882 0.07810787 -0.073670216 0.09318427
0.13959754 0.11302303 0.053558245 0.18652058 -0.006753316 0.03859705 0.18139759 0.18530966
-0.07994548 0.17282964 0.07299697 -0.020877548 0.16448297 -0.103729606 0.12370952 0.190018
-0.13982582 -0.113311656 -0.19243944 -0.032240145 -0.17566495 -0.0692189 0.055892695 0.13903646
0.10907361 0.11116244 0.08167029 -0.116777964 -0.15616953 0.0076481807 0.18585895 0.008762701
-0.015679166 -0.12943558 -0.097219005 -0.15077902 0.15497696 -0.031367693 -0.16609937 0.015184608
0.015266894 -0.021201598 0.06914892 0.10507797 -0.1807759 -0.14600515 -0.008249944 -0.1834453
00000000: 8335 173d c61f c8bd 0b36 bfbd 0279 293e
00000010: 4118 bc3d 77f5 66bd 3acc c73c 5feb 063d
00000020: c9f9 3c3d cccc 81bd 03b2 f3bd 9972 013e
00000030: 2138 d73c 05f7 9f3d 69e0 96bd 65d7 be3d
00000040: a8f2 0e3e 9e78 e73d e45f 5b3d 40ff 3e3e
00000050: ec4a ddbb f117 1e3d 4ac0 393e d1c1 3d3e
00000060: 75ba a3bd 41fa 303e 6f7f 953d 6407 abbc
00000070: 396e 283e 3070 d4bd 6b5b fd3d 1494 423e
00000080: 802e 0fbe f10f e8bd d80e 45be 3e0e 04bd
00000090: 83e1 33be a3c2 8dbd bdef 643d 935f 0e3e
000000a0: fc61 df3d 22a9 e33d c142 a73d 4929 efbd
000000b0: e8ea 1fbe 979d fa3b cf51 3e3e 6f91 0f3c
000000c0: 9871 80bc c38a 04be c21a c7bd d165 1abe
000000d0: 48b2 1e3e 697b 00bd f415 2abe ddc8 783c
000000e0: ff21 7a3c f9ae adbc f39d 8d3d 1e33 d73d
000000f0: 511d 39be 6082 15be c62a 07bc 16d9 3bbe

encoder._blocks.0.encoder.1.weight f4 [64]
1.1350005 1.0062894 0.98261595 0.9112769 0.89119315 0.91675925 0.98605424 0.99113
0.98471725 0.97725254 0.88276297 1.0482831 0.90412253 0.9949312 1.064746 0.81970674
1.1046853 0.95903 1.2307587 1.0227432 1.2327886 1.0073608 0.9180538 0.8556557
1.1027645 0.9897201 0.9997007 1.1388693 0.84966326 1.0042254 0.93354553 0.86115074
1.1631819 1.0512409 0.85949326 0.94122344 1.018932 0.8946864 0.9481675 1.0783443
1.1547589 0.9973465 0.9701961 1.0984396 1.0177824 1.1365966 1.0150956 1.0107883
0.9621001 0.9781995 1.1150872 1.0030087 0.9282587 1.0350764 0.98662317 1.0459497
1.2230098 1.0720206 1.0619907 1.0405442 0.9544967 0.88477564 0.98462844 1.2086616
00000000: b247 913f 17ce 803f b88c 7b3f 7149 693f
00000010: 3c25 643f bcb0 6a3f 0d6e 7c3f b2ba 7d3f
00000020: 6e16 7c3f 392d 7a3f c1fc 613f 242e 863f
00000030: 9374 673f d0b3 7e3f 9949 883f 4dd8 513f
00000040: 5466 8d3f fd82 753f 8089 9d3f 40e9 823f
00000050: 04cc 9d3f 33f1 803f 9305 6b3f 410c 5b3f
00000060: 6327 8d3f 4c5e 7d3f 63ec 7f3f 78c6 913f
00000070: 8883 593f 758a 803f d7fc 6e3f 6074 5c3f
00000080: 25e3 943f 108f 863f c007 5c3f 05f4 703f
00000090: 5d6c 823f 2b0a 653f 1bbb 723f 3007 8a3f
000000a0: 24cf 933f 1a52 7f3f c65e 783f ab99 8c3f
000000b0: b246 823f ff7b 913f a7ee 813f 8361 813f
000000c0: 314c 763f 486b 7a3f 2dbb 8e3f 9762 803f
000000d0: 5da2 6d3f 627d 843f 5693 7c3f aee1 853f
000000e0: 968b 9c3f f937 893f 50ef 873f 8d30 853f
000000f0: e559 743f a880 623f 9c10 7c3f 6cb5 9a3f

encoder._blocks.0.encoder.1.bias f4 [64]
-0.06747958 0.06018233 -0.11601194 -0.26462746 -0.29613477 -0.045157723 -0.027623765 -0.18198928
-0.10419506 -0.22090127 -0.26101333 -0.07431373 -0.24077767 0.016373798 -0.08431755 -0.19885379
-0.094420955 -0.025882551 -0.21702324 -0.0588476 -0.15233906 -0.04232144 -0.17353748 -0.23033303
-0.19185062 0.06965567 0.0041447147 -0.12451526 -0.08406741 0.028929917 -0.041500576 -0.25840148
-0.11046802 -0.091661796 -0.18004207 -0.21712093 -0.043919224 -0.22310504 0.0016979086 0.022903003
-0.087522015 0.055965777 -0.15313648 -0.02938464 -0.12279085 -0.10259667 0.045229066 -0.06948543
-0.11767748 -0.1719487 -0.12320728 -0.008232387 -0.023812883 -0.1090336 -0.22411549 -0.0757431
-0.11365616 0.0006525091 -0.018166684 -0.05475389 -0.025238112 -0.31639302 -0.07840667 -0.118164495
00000000: bc32 8abd bf81 763d ab97 edbd 407d 87be
00000010: fa9e 97be 4ef7 38bd 3c4b e2bc 665b 3abe
00000020: 3864 d5bd f133 62be 8aa3 85be cc31 98bd
00000030: 6c8e 76be 5822 863c aeae acbd 54a0 4bbe
00000040: c65f c1bd a507 d4bc 573b 5ebe 2e0a 71bd
00000050: c5fe 1bbe 3f59 2dbd cfb3 31be 6cdc 6bbe
00000060: 7d74 44be a2a7 8e3d 63d0 873b db01 ffbd
00000070: 892b acbd 6ffe ec3c 82fc 29bd 334d 84be
00000080: 0f3d e2bd 2eb9 bbbd f35c 38be f354 5ebe
00000090: a5e4 33bd a675 64be 5c8c de3a 149f bb3c
000000a0: be3e b3bd 5f3c 653d cfcf 1cbe 0eb8 f0bc
000000b0: c579 fbbd 341e d2bd 1d42 393d 614e 8ebd
000000c0: e400 f1bd 5213 30be 1954 fcbd 22e1 06bc
000000d0: 3c13 c3bc 024d dfbd 887e 65be 331f 9bbd
000000e0: 90c4 e8bd 250d 2b3a 4cd2 94bc 9d45 60bd
000000f0: 28c0 cebc 44fe a1be ad93 a0bd 3a00 f2bd

encoder._blocks.0.encoder.1.running_mean f4 [64]
129.67133 91.83259 72.87865 -102.83799 -205.60858 15.301107 72.73122 -4.9134116
-21.109604 -22.465519 -172.21222 86.14432 -394.23917 79.64774 88.40971 -244.36006
83.14701 41.998127 158.5954 31.197783 140.57825 45.923534 -70.8257 -278.84152
164.00095 87.696556 20.501915 85.60713 -80.64922 53.1332 60.416813 11.255371
124.36802 140.63448 -82.62433 45.99451 148.87852 -275.16193 160.23955 118.32338
173.74767 59.68109 8.27468 126.02197 104.67287 179.67763 35.691032 134.75098
13.729736 96.18647 111.94334 68.408615 72.20028 75.895386 32.856476 95.1149
165.8247 106.188515 113.62222 76.905365 98.59674 -110.94273 106.5301 127.167854
00000000: dcab 0143 49aa b742 dec1 9142 0dad cdc2
00000010: cc9b 4dc3 56d1 7441 6276 9142 ab3a 9dc0
00000020: 78e0 a8c1 62b9 b3c1 5436 2cc3 e449 ac42
00000030: 9d1e c5c3 a54b 9f42 c6d1 b042 2d5c 74c3
00000040: 454b a642 15fe 2742 6c98 1e43 0f95 f941
00000050: 0894 0c43 b3b1 3742 c2a6 8dc2 b76b 8bc3
00000060: 3e00 2443 a364 af42 ec03 a441 da36 ab42
00000070: 674c a1c2 6688 5442 d1aa 7142 0016 3441
00000080: 6dbc f842 6da2 0c43 a83f a5c2 61fa 3742
00000090: e7e0 1443 ba94 89c3 533d 2043 92a5 ec42
000000a0: 67bf 2d43 70b9 6e42 1765 0441 400b fc42
000000b0: 8258 d142 79ad 3343 9ec3 0e42 40c0 0643
000000c0: 00ad 5b41 795f c042 fde2 df42 36d1 8842
000000d0: 8b66 9042 70ca 9742 086d 0342 d43a be42
000000e0: 20d3 2543 8560 d442 943e e342 8ccf 9942
000000f0: 8831 c542 aee2 ddc2 690f d542 f155 fe42

encoder._blocks.0.encoder.1.running_var f4 [64]
1947.0703 1106.4425 1731.7357 1380.4562 3810.7747 2099.2341 934.6494 1283.4962
3692.596 1691.8794 1685.968 1928.4078 8643.858 1745.8789 2132.1885 3219.1758
2902.5935 3209.3687 4008.9036 1822.4049 1721.3013 3765.2742 2384.9875 5038.8213
2445.3352 1878.0184 2522.6077 1044.5979 3439.239 2466.0652 2618.808 3363.5076
1680.9044 2517.7498 3919.3496 2161.087 2970.3918 5344.1763 4671.797 2299.134
3461.939 2136.6245 689.8503 1952.3779 3969.459 4125.9946 1306.3369 2581.548
1261.532 4558.071 1022.682 1532.8795 4986.8315 625.836 1033.8796 2441.6418
4149.731 3350.338 2409.9827 2900.503 2591.9216 1371.3953 5385.8823 1645.9048
00000000: 4062 f344 294e 8a44 8b77 d844 998e ac44
00000010: 652c 6e45 bf33 0345 90a9 6944 e16f a044
00000020: 89c9 6645 247c d344 fabe d244 0d0d f144
00000030: 6f0f 0746 203c da44 0443 0545 d032 4945
00000040: 7f69 3545 e695 4845 758e 7a45 f5cc e344
00000050: a429 d744 6354 6b45 cd0f 1545 9276 9d45
00000060: 5dd5 1845 97c0 ea44 b9a9 1d45 2293 8244
00000070: d3f3 5645 0b21 1a45 eeac 2345 1f38 5245
00000080: f11c d244 ff5b 1d45 98f5 7445 6411 0745
00000090: 45a6 3945 6901 a745 60fe 9145 25b2 0f45
000000a0: 065f 5845 fe89 0545 6b76 2c44 180c f444
000000b0: 5817 7845 f5ef 8045 c84a a344 c558 2145
000000c0: 06b1 9d44 9170 8e45 a6ab 7f44 259c bf44
000000d0: a7d6 9b45 8175 1c44 263c 8144 459a 1845
000000e0: d9ad 8145 6865 5145 b99f 1645 0c48 3545
000000f0: bffe 2145 a66c ab44 0f4f a845 f4bc cd44

encoder._blocks.1.encoder.0.weight f4 [64, 64, 3, 3]
-0.024302732 0.040601254 0.0024331666 -0.06815639 -0.038309712 -0.047551353 -0.0086696725 -0.02707451
-0.11015195 -0.022934169 -0.009166646 0.0069661057 -0.051561356 0.008121424 -0.041890256 0.004090218
0.032850195 -0.022440815 0.008643053 -0.031149141 -0.0029243827 0.03111645 0.015427305 0.056180518
-0.0034610447 -0.049529746 0.021123273 0.0484486 -0.02309209 0.019237176 -0.015214911 -0.027030915
-0.014116747 -0.028000318 0.009690794 -0.037493337 -0.0177073 0.04118618 0.0070640063 -0.013307087
-0.014263692 -0.047741875 0.02573352 -0.012381317 -0.012247331 0.012241561 0.011178765 0.0004104884
-0.022482162 0.02405949 0.032245673 -0.024666216 -0.037978563 0.012130668 0.0059701647 0.020655248
0.025366364 -0.079217225 0.032088332 -0.020559 0.00320186 0.028815152 0.013686976 0.034448594
-0.046537578 0.018227726 -0.06451002 0.023682903 0.032863066 -0.047602385 -0.018243236 0.05859014
-0.06880576 0.031226262 0.025278453 0.018569084 0.1016253 0.08867942 -0.0027180884 0.042198844
0.06085811 0.019995578 -0.04975496 0.029452465 -0.03656157 -0.0018439406 0.0341235 -0.0025697604
-0.051799975 -0.009899876 0.03081418 0.026491577 0.047761325 0.013748807 0.0068341605 -0.031326607
0.016634211 -0.032871287 0.04097742 0.028471908 -0.028588394 -0.07104553 -0.01883331 -0.06710419
-0.073019534 0.01496215 0.045762904 -0.083614625 0.0033700583 -0.056049168 -0.03575262 -0.010192948
0.001189146 0.025407907 -0.015318054 0.0010863198 -0.026475523 0.008814488 -0.021466747 -0.020941654
-0.011969239 -0.074378505 -0.060971946 -0.004196237 -0.0035054977 -0.038035598 0.021957548 0.0014468484
-0.041739296 -0.04937158 -0.012252341 0.017669085 0.021667074 0.015718466 -0.010365491 -0.030096693
0.023661666 0.026437525 -0.039446555 0.0124641685 0.014389877 -0.0021060898 -0.03916922 -0.0078484975
0.068462126 -0.037837315 0.027117848 -0.025442304 -0.00013556372 -0.03285329 0.026419228 -0.026340181
0.008588987 0.02608135 -0.017042795 -0.007955069 0.019958805 0.034779035 -0.020092499 0.0009413273
0.017842058 0.012801478 0.0157946 -0.012519268 0.0064429343 -0.043445736 -0.022748174 0.037983917
-0.00056099903 0.043835912 -0.01161372 0.010072552 0.021412889 -0.01674883 -0.058118884 0.009570728
-0.020458393 -0.010769051 0.031901773 0.0025050314 -0.027202953 0.0054534455 0.0029966652 -0.068833806
-0.1332399 -0.019653369 0.00059337 0.025500374 0.036989916 -0.006159137 0.002387089 0.018248953
-0.0001882419 0.015470147 0.013247842 0.002956036 0.018821102 0.026698003 -0.004025054 0.027453508
0.022357022 -0.017300421 -0.05904375 -0.00931717 0.014653306 0.023696383 0.0070338855 -0.0072300867
-0.021344673 -0.015735583 -1.5077859e-05 -0.036945425 -0.0035167711 -0.034708787 -0.030532992 0.03003834
-0.013292709 -0.026226046 -0.013825891 -0.050710764 -0.06149458 0.013024811 -0.005806518 -0.014695361
0.023350278 -0.027145736 -0.019655684 0.021234423 0.07089995 0.07769996 0.09369291 0.007137453
0.0068149166 0.06942471 -0.0332282 0.010879376 0.054274432 0.0011308148 0.086298786 0.037031963
-0.03929879 -0.01428551 0.011013392 -0.0014188087 0.041721564 -0.0038091599 -0.030834446 0.0137793645
0.037159175 -0.0058933366 0.01787653 0.046515584 0.057699773 -0.005459737 0.035473555 0.028659558
00000000: 8616 c7bc 804d 263d c375 1f3b 9495 8bbd
00000010: a5ea 1cbd 35c5 42bd 3e0b 0ebc 5dcb ddbc
00000020: 5897 e1bd 70e0 bbbc b32f 16bc ee43 e43b
00000030: 0032 53bd b90f 053c 1e95 2bbd 3c07 863b
00000040: ed8d 063d cdd5 b7bc 979b 0d3c 7c2c ffbc
00000050: 00a7 3fbb ede7 fe3c cfc2 7c3c 8b1d 663d
00000060: b2d2 62bb b4df 4abd b70a ad3c 0a72 463d
00000070: 9f2b bdbc 4897 9d3c f647 79bc f06f ddbc
00000080: ee49 67bc ec60 e5bc 23c6 1e3c 9d92 19bd
00000090: e60e 91bc d7b2 283d 2e79 e73b f805 5abc
000000a0: 43b2 69bc fc8c 43bd 1acf d23c 02db 4abc
000000b0: 08a9 48bc d490 483c 2427 373c d236 d739
000000c0: 832c b8bc 6818 c53c 0a14 043d ce10 cabc
000000d0: 698f 1bbd b6bf 463c 5fa1 c33b 3235 a93c
000000e0: 1fcd cf3c a43c a2bd 0e6f 033d 596b a8bc
000000f0: 4cd6 513b c10d ec3c 573f 603c f819 0d3d
00000100: 309e 3ebd 5052 953c d41d 84bd a602 c23c
00000110: 6c9b 063d b8fa 42bd d772 95bc 37fc 6f3d
00000120: 09ea 8cbd 38ce ff3c c214 cf3c 311e 983c
00000130: ed20 d03d 8e9d b53d f521 32bb b2d8 2c3d
00000140: 5b46 793d c4cd a33c dbcb 4bbd 4c46 f13c
00000150: 96c1 15bd 61b0 f1ba 15c5 0b3d 6d69 28bb
00000160: 362c 54bd 1733 22bc 056e fc3c dd04 d93c
00000170: 61a1 433d ad42 613c 18f1 df3b 5450 00bd
00000180: 7844 883c 0ba4 06bd f0d7 273d eb3d e93c
00000190: 3532 eabc 5280 91bd 5048 9abc ec6d 89bd
000001a0: 448b 95bd ce23 753c e271 3b3d 253e abbd
000001b0: 32dc 5c3b d093 65bd 5771 12bd 5300 27bc
000001c0: 1edd 9b3a 3e24 d03c 93f8 7abc d862 8e3a
000001d0: 32e3 d8bc a46a 103c 08db afbc d58d abbc
000001e0: a11a 44bc c253 98bd b8bd 79bd 9680 89bb
000001f0: 7ebc 65bb 37cb 1bbd 51e0 b33c 2da4 bd3a
00000200: d3f6 2abd db39 4abd 0bbe 48bc c2be 903c
00000210: 267f b13c 03c4 803c 05d4 29bc 578d f6bc
00000220: 1cd6 c13c 8293 d83c b692 21bd 8336 4c3c
00000230: 85c3 6b3c 5306 0abb e76f 20bd fc96 00bc
00000240: df35 8c3d 4dfb 1abd 4026 de3c 616c d0bc
00000250: 1c26 0eb9 2c91 06bd 236d d83c 5dc7 d7bc
00000260: d3b8 0c3c 8ea8 d53c 559d 8bbc fa55 02bc
00000270: a680 a33c 7674 0e3d 0699 a4bc 68c3 763a
00000280: 8229 923c 4abd 513c ad63 813c 9e1d 4dbc
00000290: 401f d33b 28f4 31bd 615a babc 0695 1b3d
000002a0: 0210 13ba 498d 333d 7947 3ebc 5807 253c
000002b0: 156a af3c d834 89bc 110e 6ebd 8bce 1c3c
000002c0: 5c98 a7bc ac70 30bc 6fab 023d 742b 243b
000002d0: bad8 debc d1b2 b23b b363 443b bdf8 8cbd
000002e0: 0a70 08be 1a00 a1bc 638c 1b3a 29e6 d03c
000002f0: bd82 173d 96d2 c9bb b570 1c3b d47e 953c
00000300: cd62 45b9 8076 7d3c 7a0d 593c 0eba 413b
00000310: b62e 9a3c c5b5 da3c 9ae4 83bb 2ee6 e03c
00000320: 1326 b73c 9db9 8dbc dcd7 71bd 0ba7 18bc
00000330: 6c14 703c eb1e c23c 827c e63b 5dea ecbb
00000340: 06db aebc e9e7 80bc e9f6 7cb7 1654 17bd
00000350: a179 66bb cd2a 0ebd 5320 fabc f712 f63c
00000360: aac9 59bc 01d8 d6bc fd85 62bc 17b6 4fbd
00000370: bee1 7bbd 0466 553c 9a44 bebb d0c4 70bc
00000380: 1549 bf3c bc60 debc f504 a1bc d0f3 ad3c
00000390: fe33 913d 2821 9f3d 12e2 bf3d 4ce1 e93b
000003a0: aa4f df3b 8b2e 8e3d 4b1a 08bd 693f 323c
000003b0: de4e 5e3d d937 943a 6bbd b03d d4ae 173d
000003c0: c5f7 20bd c60d 6abc 8471 343c 52f7 b9ba
000003d0: 3be4 2a3d 19a3 79bb 8598 fcbc d8c2 613c
000003e0: 3834 183d e41c c1bb cd71 923c 2087 3e3d
000003f0: 9956 6c3d 98e7 b2bb b84c 113d 73c7 ea3c

encoder._blocks.1.encoder.0.bias f4 [64]
-0.021335348 0.019724406 -0.0055494 -0.021682294 0.006332147 -0.005716385 -0.040488195 -0.023935545
-0.022100843 0.0053011714 0.049480624 -0.030976262 -0.013635956 0.035033274 0.023841355 -0.0141144125
0.002696564 -0.023050467 -0.0146302795 -0.009863077 -0.0023090355 0.0063211136 0.033659738 0.021081787
0.0055946903 0.03449443 0.032846436 -0.015722321 -0.032135013 -0.013111794 -0.015454105 0.019061923
0.038942847 0.0029565473 -0.018180413 0.017307192 -0.020718401 0.01526724 -0.0075049913 -0.023818782
-0.01524386 0.04318851 -0.029907616 -0.025557151 0.031492397 0.027443781 -0.019314941 0.02499724
0.010002921 0.0056994557 0.048000786 -0.03390359 -0.0053819697 0.037402503 -0.027987098 -0.01387238
-0.0005729475 0.012150266 0.017257625 -0.018076725 0.019878099 -0.02441511 0.005071487 -0.0019377994
00000000: 78c7 aebc 1495 a13c bed7 b5bb 119f b1bc
00000010: e67d cf3b 8350 bbbb f3d6 25bd 7a14 c4bc
00000020: d40c b5bc 73b5 ad3b 32ac 4a3d eec1 fdbc
00000030: 5869 5fbc 0d7f 0f3d f24e c33c 2340 67bc
00000040: d6b8 303b 55d4 bcbc d7b3 6fbc be98 21bc
00000050: 3053 17bb 5821 cf3b cbde 093d b6b3 ac3c
00000060: aa53 b73b 084a 0d3d fc89 063d 19cc 80bc
00000070: 01a0 03bd dad2 56bc 3733 7dbc c027 9c3c
00000080: 8982 1f3d a2c2 413b 17ef 94bc d0c7 8d3c
00000090: a3b9 a9bc 7223 7a3c 6eec f5bb 9b1f c3bc
000000a0: 62c1 79bc 6fe6 303d d100 f5bc 3b5d d1bc
000000b0: 2cfe 003d c8d1 e03c 5e3a 9ebc 03c7 cc3c
000000c0: 4be3 233c 80c2 ba3b 799c 443d 7ede 0abd
000000d0: 3c5b b0bb 5e33 193d 3345 e5bc fb48 63bc
000000e0: db31 16ba e911 473c dd5f 8d3c a415 94bc
000000f0: 65d7 a23c 3202 c8bc b72e a63b c2fd fdba

encoder._blocks.1.encoder.1.weight f4 [64]
0.96197957 0.9905693 1.0160034 1.0394608 0.9951474 0.99305576 1.0094036 1.0189098
0.9411918 1.0014077 1.0181725 1.0054457 0.9912985 1.0256271 1.0075387 1.0584534
1.0303118 0.97544086 0.9780035 1.020665 1.0308676 1.0233616 1.0166681 0.9876292
0.9618618 0.99676335 0.9836082 1.0678128 1.0181501 1.0386864 1.063954 1.0501707
0.92895246 0.9849167 0.9923197 1.0212013 0.98131716 1.0181607 0.9533869 1.0026673
0.99445647 1.0089458 0.9931319 0.9800452 0.96641743 1.0174754 1.0145401 0.9879934
1.0012809 1.0078561 1.0183494 0.9403491 1.1434382 0.99600637 1.0163784 1.0430851
1.0274804 0.96899056 0.9558047 0.9660089 0.9290158 0.92402214 0.9679773 1.0023874
00000000: 4b44 763f f395 7d3f 660c 823f 0d0d 853f
00000010: fbc1 7e3f e738 7e3f 2334 813f a36b 823f
00000020: f2f1 703f 212e 803f 7a53 823f 72b2 803f
00000030: bdc5 7d3f c047 833f 07f7 803f 677b 873f
00000040: 42e1 833f 7eb6 793f 705e 7a3f 27a5 823f
00000050: 78f3 833f 83fd 823f 2e22 823f 44d5 7c3f
00000060: 933c 763f e22b 7f3f bfcd 7b3f 17ae 883f
00000070: be52 823f adf3 843f a52f 883f fe6b 863f
00000080: d4cf 6d3f 8023 7c3f aa08 7e3f b9b6 823f
00000090: 9a37 7b3f 1753 823f 2a11 743f 6757 803f
000000a0: b394 7e3f 2325 813f e43d 7e3f 3ee4 7a3f
000000b0: 2267 773f a23c 823f 73dc 813f 23ed 7c3f
000000c0: f929 803f 6e01 813f 4659 823f b8ba 703f
000000d0: 2f5c 923f 46fa 7e3f b018 823f d083 853f
000000e0: 7a84 833f c40f 783f 9eaf 743f 5c4c 773f
000000f0: fbd3 6d3f b78c 6c3f 5ccd 773f 3b4e 803f

encoder._blocks.1.encoder.1.bias f4 [64]
-0.046555825 -0.0603175 0.005188054 -0.06316295 -0.12758702 -0.1819064 -0.105545364 -0.055868816
-0.06208941 -0.023871062 -0.04944266 -0.019947644 -0.13470861 -0.025398927 -0.15044403 -0.04422827
-0.038867183 -0.08899739 -0.07886346 -0.08471256 0.021558413 -0.016580528 -0.08652321 -0.023027793
-0.104245044 -0.0907653 -0.08525161 -0.027217228 -0.09413606 -0.0563648 -0.076309435 -0.091382496
-0.06811131 -0.08907733 0.036348812 -0.04267019 -0.19168866 -0.10289375 -0.068827406 -0.039795026
-0.08397264 -0.072468236 -0.14065528 -0.22555633 -0.095267236 -0.21318081 -0.03230944 -0.0670339
-0.016209444 0.0039919037 -0.04078079 -0.17451857 -0.17918788 -0.034238964 -0.115853116 -0.08830011
-0.051171955 -0.19996968 -0.08342235 -0.06694887 -0.07955773 0.0048008817 -0.21144193 -0.08934636
00000000: 52b1 3ebd 7c0f 77bd 8d00 aa3b 945b 81bd
00000010: 2ca6 02be ac45 3abe 2b28 d8bd b3d6 64bd
00000020: 7751 7ebd 3f8d c3bc 6384 4abd 3e69 a3bc
00000030: 0ef1 09be 6911 d0bc 000e 1abe b428 35bd
00000040: 3233 1fbd 4344 b6bd 2a83 a1bd c77d adbd
00000050: 459b b03c e3d3 87bc 1533 b1bd c8a4 bcbc
00000060: 6d7e d5bd 28e3 b9bd 6598 aebd aaf6 debc
00000070: 68ca c0bd c7de 66bd 1f48 9cbd bf26 bbbd
00000080: f17d 8bbd 2d6e b6bd 7ee2 143d f0c6 2ebd
00000090: 084a 44be f5b9 d2bd 62f5 8cbd 1c00 23bd
000000a0: d9f9 abbd 3a6a 94bd f007 10be 3df8 66be
000000b0: 781b c3bd 124c 5abe e756 04bd 1249 89bd
000000c0: abc9 84bc 84ce 823b c209 27bd ffb4 32be
000000d0: 077d 37be 283e 0cbd 6644 edbd b0d6 b4bd
000000e0: af99 51bd dac4 4cbe 56d9 aabd 7d1c 89bd
000000f0: 2aef a2bd b750 9d3b 3c84 58be 39fb b6bd

encoder._blocks.1.encoder.1.running_mean f4 [64]
-0.40520927 -0.28280935 0.7772622 -1.0907239 -1.121944 -0.49249798 0.19020383 -3.0635207
0.042617127 -0.23474735 -1.1183338 0.36061254 -0.053644355 -0.16517016 0.74536395 -1.7063056
-1.0568298 0.085116275 -1.0279582 -0.25911865 -0.9273412 -0.63058966 -0.87666583 -0.80482244
-0.21756595 -1.4445288 -0.102328576 0.82710123 -0.64657295 -0.305991 0.22449915 -0.8330233
0.39006087 -0.8880428 -0.200363 -0.29265904 -1.156497 -0.56318724 -0.3864626 0.5116908
0.7937758 0.89754707 -1.2787583 0.67335314 0.2930787 1.6517408 -0.20621045 -0.66832757
0.7110091 -0.0649238 -0.86857086 -0.69905967 1.5709819 -1.4547565 1.1401649 -0.51858836
-1.081445 0.393468 -0.09247716 -0.32843798 -0.21005468 0.08101968 0.5130613 -0.5981362
00000000: 9777 cfbe 63cc 90be a8fa 463f d79c 8bbf
00000010: dc9b 8fbf b228 fcbe cbc4 423e b910 44c0
00000020: 4c8f 2e3d 9c61 70be 9025 8fbf 35a2 b83e
00000030: 2fba 5bbd 5e22 29be 2cd0 3e3f 3968 dabf
00000040: 3346 87bf 7151 ae3d 2294 83bf 33ab 84be
00000050: 3c66 6dbf 536e 21bf 2c6d 60bf d808 4ebf
00000060: 9cc9 5ebe 52e6 b8bf a591 d1bd e8bc 533f
00000070: ce85 25bf daaa 9cbe 1be3 653e 0441 55bf
00000080: 0fb6 c73e c656 63bf f52b 4dbe 68d7 95be
00000090: 1808 94bf 0a2d 10bf 6dde c5be 2bfe 023f
000000a0: e434 4b3f a5c5 653f 5aae a3bf df60 2c3f
000000b0: 690e 963e 3e6c d33f d528 53be 8417 2bbf
000000c0: b104 363f c5f6 84bd a95a 5ebf 93f5 32bf
000000d0: ef15 c93f 7635 babf ecf0 913f 35c2 04bf
000000e0: ca6c 8abf a374 c93e aa64 bdbd 0629 a8be
000000f0: 9318 57be a5ed a53d fc57 033f 741f 19bf

encoder._blocks.1.encoder.1.running_var f4 [64]
0.82466793 1.2169912 0.7783799 1.9099288 1.9011275 1.0349166 2.0296533 2.5222566
1.8650935 1.159807 2.2026522 0.91499853 1.382494 1.6347373 1.3405907 1.6042184
1.2662125 0.98784137 1.0752996 1.4284703 1.2263527 1.3798898 1.8011805 1.4882326
0.7392116 1.9195869 1.408332 0.889885 1.2798706 1.2705617 0.9215094 1.1497115
0.88413423 1.141813 1.4583777 1.0545256 1.5805371 1.5378121 1.3168879 1.0523458
0.7638172 0.8171141 1.9590487 1.2373914 2.0178487 0.5481616 0.7187921 0.89456165
0.62756866 0.92314166 1.1017659 1.1312784 0.68442065 2.1625688 0.62689334 1.3419672
1.6940157 0.9005632 1.0081459 0.8430831 1.0794696 0.9367851 1.4202213 1.4549826
00000000: 701d 533f 5ec6 9b3f e843 473f 8c78 f43f
00000010: 2558 f33f 2678 843f d7e5 0140 a76c 2140
00000020: 62bb ee3f 8e74 943f 41f8 0c40 583d 6a3f
00000030: 90f5 b03f 123f d13f 7a98 ab3f 0757 cd3f
00000040: 4013 a23f 2ce3 7c3f 6ba3 893f 1dd8 b63f
00000050: 20f9 9c3f 3ba0 b03f 158d e63f 687e be3f
00000060: f93c 3d3f 06b5 f53f 3944 b43f 81cf 633f
00000070: cdd2 a33f c4a1 a23f 0ae8 6b3f bf29 933f
00000080: 9f56 623f ee26 923f 1fac ba3f b2fa 863f
00000090: 0a4f ca3f 07d7 c43f c88f a83f 44b3 863f
000000a0: 8689 433f 642e 513f 1cc2 fa3f d762 9e3f
000000b0: 6f24 0140 5254 0c3f c202 383f fe01 653f
000000c0: 57a8 203f 0353 6c3f aa06 8d3f bbcd 903f
000000d0: 3136 2f3f 8767 0a40 157c 203f 95c5 ab3f
000000e0: 82d5 d83f 4f8b 663f ed0a 813f 4bd4 573f
000000f0: 0f2c 8a3f 26d1 6f3f d0c9 b53f df3c ba3f

encoder._blocks.2.encoder.0.weight f4 [64, 64, 3, 3]
0.034864824 -0.009810232 -0.056881234 0.042087205 0.087962344 0.014639044 0.027490342 0.01220073
0.00872157 -0.0005914959 -0.05506203 -0.051355857 -0.08531576 -0.025517633 -0.0492804 0.018721877
-0.09178646 -0.060967825 -0.021167537 0.025897779 0.036035825 -0.0710854 -0.046189982 -0.029600404
-0.048402354 0.03230479 0.00056205626 -0.057848673 0.01220673 0.025701026 0.02734968 0.019996403
-0.032755073 -0.0009661263 -0.0047794683 -0.046003588 -0.008881667 0.036756627 -0.0011530496 0.03903126
0.07997516 0.046024423 -0.028875066 -0.030598806 0.0053620795 -0.011100852 0.0064091478 -0.0028253559
0.0018949761 -0.045424733 0.05924346 -0.06262742 -0.0045744567 0.0029691844 0.048843108 0.07572262
-0.01674344 0.020575905 0.022691617 0.027582958 -0.057150546 -0.059611756 -0.022226809 -0.016241506
0.009564361 -0.03638285 0.026614025 0.053724647 0.039528314 0.022438217 0.01697911 0.017697034
0.012942835 -0.01855115 -0.014516063 0.014216344 0.0500951 0.027429169 -0.03293908 -0.027843032
-0.022543868 -0.0031642427 0.019603191 -0.017146477 -0.027391216 -0.07797509 -0.005116314 0.0013446807
-0.06067163 -0.019318206 -0.00924837 -0.014563666 -0.01930413 0.009355264 0.03652538 0.029815204
0.06290183 0.0004989327 0.02780791 0.022720354 -0.018278185 -0.021396257 0.0070692147 -0.011993187
0.008466854 -0.07629849 -0.062865384 -0.04938404 0.0021926963 -0.022598809 -0.060320046 -0.02595493
0.03931303 -0.026755925 -0.036012296 0.018830959 -0.03444037 0.015893664 0.014206879 0.039694507
0.024149342 0.018341398 0.10162465 -0.013436315 -0.033726998 -0.090400994 0.033853102 0.01059025
-0.016158963 -0.0640942 0.047841493 0.035785932 -0.043730594 0.046507798 0.025875643 0.01159071
-0.008267412 -0.0009267781 -0.00084591174 -0.06556494 -0.039339032 -0.00861676 0.012114651 0.044412635
0.041664008 -0.07319518 0.0049531045 -0.038594 -0.04284066 -0.048927594 -0.059365496 -0.07222316
-0.010944216 0.0068339286 0.044228867 0.05443655 0.024723155 0.0035363536 0.00375394 -0.05063573
0.012885869 -0.015640644 0.0040102648 0.028130148 0.03282248 0.029969532 0.054063194 -0.0027722646
-0.02960125 -0.050679363 -0.0178513 0.047606714 0.084763974 0.085424274 0.014720911 0.08166042
0.018876983 -0.074729785 -0.046936013 -0.04891223 -0.06715193 0.019137919 0.011883586 -0.01912811
0.0047601606 0.012945436 -0.052332964 -0.012717556 -0.060146883 0.010924557 0.03854319 0.06284205
-0.027495265 0.0399023 0.01649907 -0.00088362856 -0.06067397 -0.0706285 0.037306268 0.014518883
-0.048562363 0.0046411837 0.078054376 0.05616542 -0.0344877 -0.034768794 0.03560138 0.044958875
0.0063464097 -0.021201938 -0.023378555 -0.01566088 -0.010987889 -0.0033699947 -0.04654453 -0.040369466
0.04442485 0.011145184 0.06554019 -0.003911848 0.028812813 0.055920716 -0.030315723 -0.05290578
-0.017148508 -0.04037217 -0.032267127 -0.10338153 0.027422648 -0.043277416 -0.039577283 -0.05505569
0.025211459 0.033307686 0.012627327 0.034036115 -0.02463042 -0.024526447 -0.00031414363 0.003521052
0.0267983 -0.055836886 0.02145081 -0.053434525 0.019532178 -0.004745489 0.035308152 0.067917936
0.049659144 0.067644395 0.05517649 0.060878262 -0.0049330955 0.0031528694 0.003194661 -0.01039952
00000000: 6bce 0e3d 18bb 20bc 4cfc 68bd a263 2c3d
00000010: 9a25 b43d 9ad8 6f3c 6d33 e13c 92e5 473c
00000020: eae4 0e3c 9e0e 1bba b988 61bd 855a 52bd
00000030: 07ba aebd 5b0a d1bc 3fda 49bd 9f5e 993c
00000040: 8afa bbbd 66b9 79bd 8b67 adbc 9427 d43c
00000050: 4d9a 133d 3995 91bd b531 3dbd 8c7c f2bc
00000060: 8c41 46bd 0752 043d f556 133a bbf2 6cbd
00000070: bdfe 473c f58a d23c 700c e03c 7fcf a33c
00000080: 2f2a 06bd a343 7dba 169d 9cbb 426e 3cbd
00000090: 6984 11bc 1e8e 163d ed21 97ba 3edf 1f3d
000000a0: 04ca a33d 1b84 3c3d 678b ecbc 59aa fabc
000000b0: 62b4 af3b 59e0 35bc d403 d23b 9b29 39bb
000000c0: d960 f83a 490f 3abd 45a9 723d ce42 80bd
000000d0: 53e5 95bb a696 423b b60f 483d 7614 9b3d
000000e0: 8a29 89bc cd8e a83c c5e3 b93c a8f5 e13c
000000f0: b116 6abd 752b 74bd ff14 b6bc e80c 85bc
00000100: d6b3 1c3c 2f06 15bd a805 da3c 600e 5c3d
00000110: 71e8 213d 5ad0 b73c c617 8b3c 5ff9 903c
00000120: 2f0e 543c 95f8 97bc c8d4 6dbc abeb 683c
00000130: 8530 4d3d 23b3 e03c 21eb 06bd 1217 e4bc
00000140: ebad b8bc 2f5f 4fbb df96 a03c c576 8cbc
00000150: 8b63 e0bc 67b1 9fbd c1a6 a7bb ff3f b03a
00000160: d182 78bd 3741 9ebc 7a86 17bc 719c 6ebc
00000170: b223 9ebc d246 193c a39b 153d 043f f43c
00000180: add2 803d cfca 023a 6acd e33c 0920 ba3c
00000190: 22bc 95bc 3447 afbc dfa4 e73b 127f 44bc
000001a0: 8fb8 0a3c 6242 9cbd 91bf 80bd eb46 4abd
000001b0: 57b3 0f3b 2321 b9bc 2712 77bd 6f9f d4bc
000001c0: b306 213d 3e2f dbbc a181 13bd 6243 9a3c
000001d0: 5811 0dbd 6e33 823c f8c3 683c b596 223d
000001e0: d7d4 c53c b340 963c 9620 d03d fd23 5cbc
000001f0: 5225 0abd 2824 b9bd 8da9 0a3d ba82 2d3c
00000200: cd5f 84bc d243 83bd 71f5 433d 4594 123d
00000210: da1e 33bd f67e 3e3d 28f9 d33c f6e6 3d3c
00000220: 0a74 07bc 07f3 72ba 2dc0 5dba e946 86bd
00000230: f721 21bd 502d 0dbc 877c 463c 06ea 353d
00000240: e1a7 2a3d 5be7 95bd a74d a23b be14 1ebd
00000250: b079 2fbd 4d68 48bd 3c29 73bd bce9 93bd
00000260: 5e4f 33bc 26ef df3b 5429 353d dcf8 5e3d
00000270: 3788 ca3c 2bc2 673b aa04 763b 6967 4fbd
00000280: 401f 533c cf20 80bc 8a68 833b 3271 e63c
00000290: dd70 063d aa82 f53c 5e71 5d3d e2ae 35bb
000002a0: 527e f2bc 2a95 4fbd e43c 92bc 42ff 423d
000002b0: bc98 ad3d ecf2 ae3d fa2f 713c 943d a73d
000002c0: e7a3 9a3c ee0b 99bd fa3f 40bd 3158 48bd
000002d0: f386 89bd 20c7 9c3c 5fb3 423c 8eb2 9cbc
000002e0: 1ffb 9b3b 1819 543c 175b 56bd 4c5d 50bc
000002f0: 945c 76bd eafc 323c 77df 1d3d 55b3 803d
00000300: c03d e1bc 9870 233d 0f29 873c 4fa3 67ba
00000310: 4585 78bd ada5 90bd 75ce 183d 9ce0 6d3c
00000320: 54e9 46bd 1215 983b f9da 9f3d b60d 663d
00000330: f942 0dbd b969 0ebd c1d2 113d cc26 383d
00000340: 8bf5 cf3b b0af adbc 6284 bfbc 3f4b 80bc
00000350: 8c06 34bc 21db 5cbb 7aa5 3ebd 745a 25bd
00000360: d5f6 353d 4a9a 363c ef39 863d f62e 80bb
00000370: d908 ec3c 1f0d 653d ae58 f8bc bbb3 58bd
00000380: 077b 8cbc 4a5d 25bd 892a 04bd b2b9 d3bd
00000390: 76a5 e03c a943 31bd ca1b 22bd 1382 61bd
000003a0: 4388 ce3c a46d 083d d9e2 4e3c 7469 0b3d
000003b0: bcc5 c9bc b0eb c8bc a5b3 a4b9 73c1 663b
000003c0: 1c88 db3c 38b5 64bd 9cb9 af3c 29de 5abd
000003d0: f201 a03c 0c80 9bbb 489f 103d 8f18 8b3d
000003e0: 6367 4b3d 2589 8a3d be00 623d 7c5b 793d
000003f0: cea5 a1bb 5fa0 4e3b 855d 513b c062 2abc

encoder._blocks.2.encoder.0.bias f4 [64]
0.013178522 -0.007657827 0.009509078 0.012257917 0.019706558 0.03380489 -0.01606526 0.0368956
-0.02356826 0.030244103 -0.009411926 0.012062826 0.009666706 0.027894434 0.027166346 0.026353583
0.017673612 -0.00913212 0.019360632 -0.01118501 0.023410771 -0.011206386 0.031265825 0.015012417
-0.020277401 -0.0147208385 0.014704472 -0.018621633 -0.026551152 0.017814629 0.039592315 -0.025218623
-0.013382286 -0.012619678 0.04047056 0.012278141 -0.036510114 -0.032063127 0.029582819 0.0252614
-0.0075002336 -0.03676516 -0.0038197385 -0.03100036 0.038796555 -0.04102925 0.015095754 -0.002684755
-0.0038152465 -0.011373692 -0.0026030603 -0.033469215 -0.021404406 -0.0009529163 0.032072235 0.038626127
-0.032872614 0.019638633 -0.012256476 -0.032715634 0.03652315 0.021421548 -0.026037592 0.03734035
00000000: baea 573c 82ee fabb f7cb 1b3c 6ed5 483c
00000010: a66f a13c ff76 0a3d 4b9b 83bc d71f 173d
00000020: 3912 c1bc 7bc2 f73c 7b34 1abc 29a3 453c
00000030: 1b61 1e3c de82 e43c f58b de3c 78e3 d73c
00000040: 40c8 903c e39e 15bc 309a 9e3c 5541 37bc
00000050: f2c7 bf3c fd9a 37bc 9810 003d a4f6 753c
00000060: cb1c a6bc ac2f 71bc 07eb 703c 658c 98bc
00000070: cd81 d9bc fcef 913c 8d2b 223d 4997 cebc
00000080: 6041 5bbc c4c2 4ebc 75c4 253d 422a 493c
00000090: a18b 15bd a054 03bd ab57 f23c fff0 ce3c
000000a0: 85c4 f5bb 1097 16bd 9454 7abb 78f4 fdbc
000000b0: 23e9 1e3d 490e 28bd 2e54 773c b7f2 2fbb
000000c0: 3709 7abb b958 3abc 1b98 2abb 0417 09bd
000000d0: 4b58 afbc 21cd 79ba 2d5e 033d 6e36 1e3d
000000e0: 6fa5 06bd 33e1 a03c 63cf 48bc d400 06bd
000000f0: 4c99 153d 3e7c af3c ca4c d5bc 32f2 183d

encoder._blocks.2.encoder.1.weight f4 [64]
1.0287335 0.9838462 0.9979167 0.998436 0.9934939 1.0140568 1.0203056 0.99704254
1.0383099 1.0021125 0.9775527 0.91874933 1.0246092 1.0149794 0.9968126 1.0342566
0.94745195 1.0076152 0.9212611 1.1200179 0.9967455 1.0804939 0.98501426 0.9974199
0.98684293 1.0199357 0.9845806 1.1066085 1.0010107 1.020132 1.039281 0.97918373
1.0046072 1.0246689 0.8997841 1.0795014 0.95347476 0.9147053 0.9664503 0.98860824
1.035011 0.9489805 1.0063682 0.9643012 1.0516622 0.9822329 0.917403 0.97559214
0.9645794 0.9708365 1.0540488 1.0197225 0.9694032 1.0366286 0.9297951 0.9891412
1.0130528 1.0155528 0.99424636 0.9653675 1.0330945 1.0180888 1.0541092 0.975904
00000000: 8aad 833f 58dd 7b3f 7877 7f3f 8099 7f3f
00000010: 9e55 7e3f 9dcc 813f 6099 823f 2e3e 7f3f
00000020: 57e7 843f 3945 803f e540 7a3f 2833 6b3f
00000030: 6526 833f d8ea 813f 1c2f 7f3f 8562 843f
00000040: 368c 723f 89f9 803f c4d7 6b3f bf5c 8f3f
00000050: b72a 7f3f a04d 8a3f e529 7c3f e956 7f3f
00000060: bda1 7c3f 418d 823f 790d 7c3f 59a5 8d3f
00000070: 1e21 803f af93 823f 2907 853f c9ab 7a3f
00000080: f896 803f 5a28 833f 4058 663f 1a2d 8a3f
00000090: ec16 743f 202a 6a3f 4969 773f 6e15 7d3f
000000a0: 3e7b 843f 63f0 723f acd0 803f 72dc 763f
000000b0: de9c 863f 9e73 7b3f ecda 6a3f 68c0 793f
000000c0: adee 763f be88 783f 12eb 863f 4486 823f
000000d0: cf2a 783f 3fb0 843f 0d07 6e3f 5c38 7d3f
000000e0: b7ab 813f a2fd 813f ee86 7e3f 5322 773f
000000f0: 713c 843f bc50 823f 0ded 863f d8d4 793f

encoder._blocks.2.encoder.1.bias f4 [64]
-0.083715916 -0.05437974 -0.073833115 -0.12841284 -0.0904431 -0.15622807 -0.077707104 -0.011025671
-0.08496716 -0.12538303 -0.10628727 -0.12595747 -0.14495291 -0.047007862 -0.090149336 -0.08705963
-0.13741145 -0.1332898 -0.082551464 -0.16255309 -0.1030577 -0.14215374 -0.05171585 -0.10108917
-0.024599252 -0.11355456 0.0012308557 -0.13432974 -0.07109009 -0.14610961 -0.045102548 -0.04064721
-0.052521493 -0.15275587 -0.12689833 -0.059580002 -0.11406327 -0.17480806 -0.08741734 -0.12749088
-0.094025634 -0.07752999 -0.035555687 -0.021486096 -0.15155287 0.02290507 0.0044541643 -0.05925264
-0.11575951 -0.13208763 -0.16099598 -0.052241758 -0.12678432 0.10544973 -0.13714805 -0.053327233
-0.030224755 -0.07638026 -0.03199636 -0.07573052 -0.08939036 -0.08795525 -0.104496785 -0.1679696
00000000: 4073 abbd 4abd 5ebd d135 97bd a87e 03be
00000010: 3b3a b9bd 40fa 1fbe e724 9fbd 04a5 34bc
00000020: 4303 aebd 6964 00be 24ad d9bd fffa 00be
00000030: 896e 14be 518b 40bd 37a0 b8bd 524c b2bd
00000040: 96b5 0cbe 1f7d 08be be10 a9bd 5174 26be
00000050: ea0f d3bd c090 11be 00d4 53bd d707 cfbd
00000060: 5f84 c9bc 4b8f e8bd aa54 a13a bc8d 09be
00000070: ae97 91bd c29d 15be 73bd 38bd b07d 26bd
00000080: c720 57bd 096c 1cbe a3f1 01be 290a 74bd
00000090: 019a e9bd e200 33be dd07 b3bd f88c 02be
000000a0: 8390 c0bd 0bc8 9ebd d7a2 11bd 9c03 b0bc
000000b0: ad30 1bbe 6aa3 bb3c 3df4 913b e5b2 72bd
000000c0: 5213 edbd fb41 07be 21dc 24be 74fb 55bd
000000d0: c0d3 01be 07f6 d73d 8a70 0cbe a86d 5abd
000000e0: e899 f7bc 416d 9cbd 9d0e 03bd 9a18 9bbd
000000f0: 4b12 b7bd e221 b4bd 6902 d6bd 3900 2cbe

encoder._blocks.2.encoder.1.running_mean f4 [64]
-0.30843365 0.727119 1.1079584 -1.0903704 -0.0072671883 -1.1257385 -0.87575555 0.3611105
-1.89347 0.53536284 0.028944174 -0.86993706 -1.1019628 -0.023624223 -1.6738032 -2.7386665
0.88715225 -0.5266757 0.28250363 -0.16283135 -0.0015306803 -0.43748683 0.72398204 -0.11216499
0.41253015 -0.21379116 1.280297 -1.8696641 -1.7331547 -0.096519776 0.020993715 -0.52918464
-0.13432302 -0.34916478 0.017997397 -0.2896663 0.17663379 -0.89286005 0.82185704 -0.50480723
0.7289169 0.26092878 -0.114223965 0.12245546 -0.2789702 0.41414574 1.6384169 -1.6334369
-2.3294437 0.3246315 -0.6392954 0.46687406 -0.69188875 0.8553426 -0.42755717 0.4274477
-1.0997504 -2.6583261 0.78673106 -1.1834177 0.25400892 0.5379853 -2.8654985 -0.8248291
00000000: 04eb 9dbe 7924 3a3f 95d1 8d3f 4291 8bbf
00000010: 9821 eebb 3318 90bf 8431 60bf 7ae3 b83e
00000020: 3a5d f2bf 8a0d 093f 551c ed3c 32b4 5ebf
00000030: 1e0d 8dbf 9687 c1bc 2f3f d6bf 5046 2fc0
00000040: 691c 633f 38d4 06bf 51a4 903e 43bd 26be
00000050: 1ca1 c8ba 46fe dfbe e356 393f c2b6 e5bd
00000060: 2737 d33e 12ec 5abe c6e0 a33f 2751 efbf
00000070: 03d8 ddbf 29ac c5bd 03fb ab3c a578 07bf
00000080: f98b 09be bac5 b2be 476f 933c 244f 94be
00000090: 7ddf 343e 7a92 64bf 3965 523f 0c3b 01bf
000000a0: 4c9a 3a3f 7598 853e 41ee e9bd eec9 fa3d
000000b0: 2fd5 8ebe e90a d43e a5b7 d13f 7614 d1bf
000000c0: 9b15 15c0 1a36 a63e dda8 23bf 1e0a ef3e
000000d0: 9f1f 31bf bcf7 5a3f c6e8 dabe 6dda da3e
000000e0: 9fc4 8cbf 0422 2ac0 3567 493f 3b7a 97bf
000000f0: 750d 823e 68b9 093f 5464 37c0 0028 53bf

encoder._blocks.2.encoder.1.running_var f4 [64]
2.3431635 1.4262505 1.8839899 3.2748463 1.743813 2.9811697 2.6696165 2.119112
2.3385265 2.2848907 1.6688031 2.6402028 2.598575 1.757369 3.2675266 3.6892662
2.241908 2.5140972 1.7160101 2.8018126 1.8111656 3.2403994 2.006582 2.4799335
2.5317528 1.6161038 2.3269558 3.3796608 2.565082 2.59846 2.1264136 2.8099148
1.8147988 3.0127487 2.545374 3.3450603 1.5272658 1.8926616 1.8614821 2.1215458
2.338671 2.2333899 1.8269507 2.1468256 2.0149055 1.5796908 2.554797 2.1491187
3.4283078 2.7062001 2.7432408 2.1181135 2.3630495 1.847391 2.137198 1.6976825
2.700052 2.7584913 2.1154745 2.4598746 2.1490672 2.1760914 3.8865643 2.2326064
00000000: 64f6 1540 608f b63f 9526 f13f 1597 5140
00000010: 4435 df3f 7ccb 3e40 ffda 2a40 889f 0740
00000020: 6baa 1540 a63b 1240 579b d53f 15f9 2840
00000030: 0e4f 2640 78f1 e03f 281f 5140 f01c 6c40
00000040: 6c7b 0f40 f8e6 2040 38a6 db3f e650 3340
00000050: 46d4 e73f b462 4f40 d76b 0040 3bb7 1e40
00000060: 3d08 2240 7ddc ce3f d8ec 1440 5d4c 5840
00000070: 4e2a 2440 2b4d 2640 2917 0840 a5d5 3340
00000080: 544b e83f e0d0 4040 68e7 2240 7815 5640
00000090: 727d c33f bc42 f23f 0c45 ee3f 68c7 0740
000000a0: c9ac 1540 dcef 0e40 85d9 e93f 9765 0940
000000b0: 36f4 0040 4f33 ca3f cb81 2340 298b 0940
000000c0: 6569 5b40 6232 2d40 4291 2f40 2c8f 0740
000000d0: 343c 1740 4f77 ec3f dac7 0840 a94d d93f
000000e0: a7cd 2c40 1f8b 3040 ef63 0740 966e 1d40
000000f0: 518a 0940 1545 0b40 78bd 7840 06e3 0e40

encoder._blocks.3.encoder.0.weight f4 [64, 64, 3, 3]
0.031680454 -0.032361485 -0.0005091638 0.04003317 -0.02550729 -0.048826244 -0.02011182 -0.014854086
-0.022946825 0.016298126 -0.02834246 0.0070739132 0.049544998 0.0322639 0.05841757 -0.03511185
0.0040220246 0.08872305 0.003919376 -0.005031286 -0.026384858 0.02218829 -0.036111005 -0.1024815
0.012363673 0.007895006 -0.05893674 -0.043933004 0.014967758 0.0025955494 -0.027603261 -0.006385567
-0.07970418 -0.032638825 -0.0039386386 0.033926457 -0.053121764 0.003665235 -0.025553618 0.02811289
0.03492157 0.062506154 -0.033610195 -0.057254143 -0.037560098 0.0146745825 0.046288706 0.054200392
0.03461098 0.026193867 -0.11297445 0.10933138 0.04673804 -0.025297735 -0.009637858 0.023524249
0.0127172405 0.03768007 0.014466745 0.005092605 -0.009749352 -0.018411476 0.033000942 -0.02181781
0.015103811 -0.04683368 0.05150134 0.027326409 -0.000886455 0.0061299703 0.06356442 0.028503753
0.0626276 0.057514504 -0.018488975 0.044965345 -0.08973837 -0.12371249 0.074243136 -0.051992297
0.031538982 -0.034492653 -0.029847667 0.008654683 0.023932472 0.022241086 -0.018907698 0.0404055
0.019534746 -0.04928441 0.025642373 0.04018871 -0.02072018 -0.014018955 -0.03855098 -0.029029153
-0.039303735 -0.08961653 -0.00938364 0.007758232 -0.018170623 -0.0054219994 -0.015544965 0.025968939
0.032409128 0.043955117 0.004698905 -0.0030072671 -0.007511611 -0.0123934625 0.004773314 -0.026651336
0.017570138 0.05880237 0.03268097 -0.010261251 0.043881744 0.011566801 0.00084791495 -0.0049942983
-0.014854279 -0.03686436 0.029799415 0.02620445 -0.0052755848 -0.047334705 -0.011404185 0.042404555
-0.03033208 -0.00620269 -0.047145735 -0.07940616 -0.024089968 0.040538073 0.06217277 0.07361018
0.06509716 0.0058503984 0.00987796 -0.0093104 -0.026748858 0.076901376 -0.008002042 0.036120187
-0.01248477 0.0072572953 -0.0269307 0.02787055 0.036973517 -0.0626863 0.021170294 0.07936293
-0.016811144 -0.04481495 -0.025800837 0.03554562 0.010883174 -0.111376196 -0.058548544 0.021284536
0.021938492 -0.005098443 -0.046235286 0.019500509 -0.032950867 -0.0075317994 0.021187376 -0.074707225
0.0125851035 0.003502267 -0.019855252 -0.0037212737 0.021197218 0.060795847 -0.032280803 -0.009276104
0.0074365493 -0.03422083 -0.031058522 -0.03909959 -0.009182491 -0.0010553267 -0.0005769845 0.029260753
0.025193501 -0.11053602 0.041401785 -0.02997863 -0.0064188493 0.048305284 0.014919731 0.00489201
-0.025611551 0.04174335 0.067607425 0.0048258924 0.03970119 0.05634458 -0.036196765 -0.04341214
-0.013433364 0.017512476 -0.016268946 -0.086708024 -0.004291895 0.031559672 -0.07489237 0.00839582
-0.0119840745 -0.0122375935 0.073923595 0.05607619 0.087264635 0.034848507 -0.016627992 0.046933617
-0.05892393 0.03474027 -0.0054148636 0.03059533 -0.024666974 -0.02949862 0.022581184 -0.012982632
0.0022926184 -0.03314442 0.05552723 0.05933474 0.028192282 0.04779318 0.017302945 0.045060974
-0.015013371 -0.0048838467 -0.009336219 0.024636237 -0.018623125 0.017688302 -0.008791954 -0.013456616
-0.051026966 0.005131853 0.03065468 0.01527576 -0.032232996 0.015465192 -0.02629528 -0.071665615
0.0009690521 -0.0047395737 -0.02348995 -0.01349971 0.044565104 0.03839657 0.005802861 0.023176054
00000000: 5dc3 013d 7a8d 04bd 6779 05ba d2f9 233d
00000010: aaf4 d0bc 07fe 47bd 8bc1 a4bc 8d5e 73bc
00000020: fbfa bbbc a683 853c 722e e8bc 49cc e73b
00000030: b2ef 4a3d 2727 043d 4347 6f3d 71d1 0fbd
00000040: 30cb 833b 6eb4 b53d 1c6e 803b 7cdd a4bb
00000050: 0f25 d8bc 37c4 b53c 22e9 13bd d2e1 d1bd
00000060: 0191 4a3c 0e5a 013c a767 71bd 18f3 33bd
00000070: 543b 753c 181a 2a3b 3c20 e2bc 053e d1bb
00000080: f23b a3bd 4ab0 05bd b20f 81bb 78f6 0a3d
00000090: 3596 59bd 7034 703b d255 d1bc 014d e63c
000000a0: ec09 0f3d 3a03 803d d8aa 09bd 5283 6abd
000000b0: 9ed8 19bd a96d 703c 3a99 3d3d 3b01 5e3d
000000c0: 3ec4 0d3d 8594 d63c 265f e7bd 21e9 df3d
000000d0: 6370 3f3d 323d cfbc 1be8 1dbc edb5 c03c
000000e0: f95b 503c 6b56 1a3d ed05 6d3c dedf a63b
000000f0: bfbb 1fbc aad3 96bc ff2b 073d 44bb b2bc
00000100: fa75 773c acd4 3fbd 12f3 523d a2db df3c
00000110: fd60 68ba ebdd c83b 102e 823d b480 e93c
00000120: e642 803d 5494 6b3d 3176 97bc 952d 383d
00000130: c0c8 b7bd f95c fdbd c90c 983d e0f5 54bd
00000140: 052f 013d 2b48 0dbd 1883 f4bc 5fcc 0d3c
00000150: 080e c43c f032 b63c 51e4 9abc 3d80 253d
00000160: 5507 a03c 73de 49bd f40f d23c eb9c 243d
00000170: 5ebd a9bc c2af 65bc a2e7 1dbd 8cce edbc
00000180: f4fc 20bd df88 b7bd d7bd 19bc c438 fe3b
00000190: 8fda 94bc 07ab b1bb 4fb0 7ebc d0bc d43c
000001a0: 6fbf 043d 480a 343d 46f9 993b 9215 45bb
000001b0: f623 f6bb f30d 4bbc 7669 9c3b e753 dabc
000001c0: 40ef 8f3c c1da 703d 7bdc 053d ce1e 28bc
000001d0: 58bd 333d ae82 3d3c 9c46 5e3a 36a7 a3bb
000001e0: 5d5f 73bc 15ff 16bd e71d f43c b7aa d63c
000001f0: d0de acbb 09e2 41bd 9ed8 3abc 66b0 2d3d
00000200: fb7a f8bc ef3f cbbb e31b 41bd b29f a2bd
00000210: 5358 c5bc 400b 263d e0a8 7e3d efc0 963d
00000220: a951 853d b3b4 bf3b 2bd7 213c a68a 18bc
00000230: 6c20 dbbc 787e 9d3d ff1a 03bc c3f2 133d
00000240: ec8c 4cbc 9bce ed3b c59d dcbc c850 e43c
00000250: 8b71 173d ad61 80bd 536d ad3c 0889 a23d
00000260: 86b7 89bc e28f 37bd 475c d3bc 4998 113d
00000270: 574f 323c 3419 e4bd 99d0 6fbd e85c ae3c
00000280: 5ab8 b33c d710 a7bb 3661 3dbd 88bf 9f3c
00000290: 7df7 06bd 50cd f6bb 2691 ad3c 1a00 99bd
000002a0: c031 4e3c 4a86 653b 7ba7 a2bc 9de0 73bb
000002b0: caa5 ad3c 1105 793d e038 04bd cdfa 17bc
000002c0: 4cae f33b 242b 0cbd 716e febc e426 20bd
000002d0: 2972 16bc e352 8aba c640 17ba 3fb4 ef3c
000002e0: 9a62 ce3c b560 e2bd eb94 293d be95 f5bc
000002f0: 3655 d2bb c3db 453d e371 743c 274d a03b
00000300: 51cf d1bc 13fb 2a3d c375 8a3d 8522 9e3b
00000310: b79d 223d 93c9 663d 0f43 14bd eed0 31bd
00000320: 9d17 5cbc 5376 8f3c 7446 85bc fa93 b1bd
00000330: 06a3 8cbb b744 013d 2c61 99bd 9f8e 093c
00000340: da58 44bc 3080 48bc 4165 973d 26b0 653d
00000350: cdb7 b23d 4fbd 0e3d 6d37 88bc 773d 403d
00000360: 385a 71bd d04b 0e3d 2b6f b1bb 0fa3 fa3c
00000370: 6512 cabc 17a7 f1bc 2dfc b83c 1bb5 54bc
00000380: c13f 163b 71c2 07bd 8570 633d fc08 733d
00000390: 80f3 e63c c8c2 433d e8be 8d3c db91 383d
000003a0: a4fa 75bc ad08 a0bb f1f6 18bc efd1 c93c
000003b0: 868f 98bc 0fe7 903c 210c 10bc 2379 5cbc
000003c0: a701 51bd 1a29 a83b 861f fb3c 2e47 7a3c
000003d0: bf06 04bd b761 7d3c 3369 d7bc 6cc5 92bd
000003e0: fc07 7e3a 6d4e 9bbb ff6d c0bc e32d 5dbc
000003f0: e689 363d b945 1d3d ed25 be3b b5db bd3c

encoder._blocks.3.encoder.0.bias f4 [64]
-0.024988689 0.0086658 0.023705961 0.023775106 -0.008388294 0.0011375985 -0.045878313 -0.04390583
0.011747592 0.037310354 -0.010309643 -0.038344342 0.029779712 0.036388487 -0.016189428 -0.0011271383
0.011809785 -0.030371886 -0.007736735 0.030269595 0.01303256 0.03281399 0.034063265 -0.0016057837
-0.020642385 -0.022257697 0.00018168842 0.015572725 -0.029723082 -0.013402106 0.015556759 0.00037611107
0.03177117 -0.029139793 0.014707564 0.021372614 -0.013930093 -0.01609542 -0.012055371 0.0048984434
0.040522367 0.004188653 -0.009135453 -0.0124365175 -0.029942093 0.033227324 0.038456727 -0.01903793
0.0036830902 0.009687438 0.029930191 0.017901793 -0.021519413 -0.00304564 -0.035737555 -0.019565709
0.01910428 -0.015464867 0.0135928765 -0.012602805 0.022277901 -0.024899283 -0.029274456 -0.03706468
00000000: 14b5 ccbc 00fb 0d3c 0133 c23c 03c4 c23c
00000010: 0e6f 09bc 791b 953a e6ea 3bbd 99d6 33bd
00000020: f978 403c bed2 183d c7e9 28bc f50e 1dbd
00000030: 95f4 f33c 180c 153d b19f 84bc 7cbc 93ba
00000040: d47d 413c 76ce f8bc 7084 fdbb f1f7 f73c
00000050: 8586 553c f667 063d ec85 0b3d 2979 d2ba
00000060: 381a a9bc c655 b6bc 9d83 3e39 be24 7f3c
00000070: d27d f3bc 8294 5bbc c7e1 7e3c c630 c539
00000080: 7d22 023d 93b6 eebc fff7 703c 9f15 af3c
00000090: 0b3b 64bc 8bda 83bc e483 45bc 1f83 a03b
000000a0: c8fa 253d f840 893b deac 15bc 89c2 4bbc
000000b0: 1f49 f5bc 6019 083d cd84 1d3d 6ff5 9bbc
000000c0: 0060 713b 0fb8 1e3c 2930 f53c c8a6 923c
000000d0: 7b49 b0bc 5c99 47bb 8b61 12bd 4448 a0bc
000000e0: 9480 9c3c 5b60 7dbc a8b4 5e3c ff7b 4ebc
000000f0: 2580 b63c 95f9 cbbc fcd0 efbc 22d1 17bd
